model.pth (torch, 408531 bytes, 4 tensors)

fc1.weight f4 [128, 784]
0	0x3d066c0a	0.032817878
1	0xbc55e68e	-0.013055457
2	0x3c3b1b63	0.011420104
3	0xbcc31038	-0.023811445
4	0x3bbf7853	0.005843201
5	0xbcbf1cd2	-0.023329172
6	0xbc9a1b4f	-0.01881185
7	0xbc952f18	-0.018210933
8	0x3c4344f8	0.011918299
9	0x3cfcec2c	0.030874334
10	0xbba58507	-0.0050512585
11	0xbc36bfc5	-0.01115412
12	0xbcca304a	-0.02468123
13	0x3c1ea7f4	0.009683598
14	0x3aad5f07	0.0013227173
15	0x3d08633c	0.033297762
16	0xbcd3b970	-0.02584526
17	0xbc7234de	-0.014783112
18	0xbc4f204a	-0.012641976
19	0x3a19c526	0.0005865864
20	0xbc9e94a7	-0.019357992
21	0x3c69ff4c	0.014282059
22	0x3ce07a44	0.02740205
23	0x3cfd7ce7	0.030943347
24	0xbbfb399d	-0.00766678
25	0x3c252822	0.010080369
26	0xbce4916a	-0.02790137
27	0xbbfd4a37	-0.0077297944
28	0xbcc1f2fa	-0.02367543
29	0xbd03d73c	-0.032187685
30	0x3c66f301	0.014096023
31	0x3ce2db15	0.027692357
32	0x3c89f6e8	0.016841367
33	0x3d08f92b	0.03344075
34	0xbd04995b	-0.032372814
35	0x3d10d15c	0.03535591
36	0x3b8ca527	0.0042921486
37	0x3cf99a4d	0.030469084
38	0xbcffa1e9	-0.031205134
39	0x3cd57de8	0.026061013
40	0xbba0ff5c	-0.0049132537
41	0xbcb4b5b3	-0.022059297
42	0x3bdb6c96	0.006696294
43	0xbcd21d12	-0.025648627
44	0x3c67a526	0.014138496
45	0x3cc291ca	0.023751158
46	0x3ca80d10	0.020514041
47	0x3a0c7d05	0.00053592055
48	0x39e3615e	0.00043369358
49	0x3c0c077a	0.008546704
50	0x3d053ab0	0.032526672
51	0x3aa2fc79	0.0012434862
52	0x3c317e66	0.010833358
53	0x3bd0df89	0.0063743037
54	0x3c847a30	0.016171545
55	0x3cb802d8	0.022462294
56	0xbb2de7bf	-0.0026535837
57	0xbca2ba48	-0.019864216
58	0xbc8c437e	-0.017122027
59	0x3d0912c9	0.03346518
60	0x3d090d5a	0.03346
61	0x3c3bb139	0.011455827
62	0xbc33f3a7	-0.010983384
63	0xbca49073	-0.02008841
64	0xbca3b2c3	-0.019982701
65	0xbc9c39a4	-0.019070454
66	0x3b34a0ad	0.002756159
67	0x3d04f660	0.032461524
68	0x3d47ba77	0.04876181
69	0x3cadb034	0.021202184
70	0x3ac28bba	0.0014842667
71	0x3d2f51c0	0.042802572
72	0x3d3b228f	0.045687255
73	0x3d0cc686	0.034369014
74	0xbc86c113	-0.016449487
75	0xbc6de06a	-0.0145188365
76	0x3cb6f204	0.022332199
77	0x3cba695f	0.022755323
78	0xbb0c0edc	-0.0021371162
79	0x3be52548	0.0069929697
80	0xbcc67d4b	-0.024229666
81	0x3c49ae90	0.012309685
82	0xbcb69640	-0.022288442
83	0x3b7657ab	0.0037588875
84	0xbb12dbbf	-0.002240881
85	0xbca2d4d4	-0.019876875
86	0x3c41d102	0.0118296165
87	0x3ceb4c7a	0.02872299
88	0xbc7b35df	-0.015332668
89	0xbbb84371	-0.005623274
90	0x3cf789ef	0.030217139
91	0xbcc1b352	-0.023645077
92	0x3c0c8113	0.008575696
93	0xbbadf217	-0.0053084004
94	0x3cfb1884	0.030651338
95	0x3cc18b2f	0.023625938
96	0x3d10438e	0.035220675
97	0x3cf9d400	0.030496597
98	0x3cda2c5d	0.026632482
99	0x3ca72624	0.020403929
100	0xb931024c	-0.00016880891
101	0xbce45b48	-0.027875558
102	0xbd004659	-0.03131709
103	0xbcd766aa	-0.026294071
104	0x3ce01f58	0.027358696
105	0x3d4c48ab	0.04987399
106	0x3d1b2029	0.037872467
107	0x3d395e51	0.045255963
108	0x3d11ca21	0.035593156
109	0xbb5f96e2	-0.0034117033
110	0xbbf7ea4f	-0.0075657736
111	0x3ceecb66	0.029149722
112	0xbc9a89c7	-0.018864525
113	0xbcb58c6c	-0.022161685
114	0x3c31adef	0.010844692
115	0x3c61e6d2	0.013787942
116	0x3bd15774	0.006388599
117	0x3b5c9e58	0.0033663716
118	0xbd173c98	-0.03692302
119	0x3c946b54	0.018117584
120	0x3be8bc97	0.00710256
121	0x3cf6f50a	0.03014614
122	0x3daaf463	0.08347394
123	0x3d959261	0.0730331
124	0x3e0e223a	0.13880244
125	0x3d72061f	0.05908787
126	0x3dd115b6	0.10209219
127	0x3d595c07	0.05306628
128	0x3d3f71a2	0.046739228
129	0x3d043715	0.032279093
130	0xbce8ec07	-0.02843286
131	0xbd3901f6	-0.045167886
132	0xbbce77c2	-0.0063008973
133	0x3ce5a226	0.02803142
134	0xbc275c14	-0.010214824
135	0x3cad758e	0.021174219
136	0x3d226221	0.039644364
137	0xbcaab45c	-0.020837955
138	0x3c924105	0.01785327
139	0xbcf47180	-0.029839277
140	0x3b7a5bfb	0.0038201797
141	0x3c711216	0.014713785
142	0x3bd97665	0.006636428
143	0x3c3e7f52	0.011627035
144	0xbd361051	-0.044449154
145	0xbcabd6be	-0.02097642
146	0xbd3ff206	-0.04686167
147	0x3cc2f5cb	0.023798844
148	0x3d4f3fc5	0.050597925
149	0x3de12b84	0.10994628
150	0x3de16ed0	0.11007464
151	0x3dda84a8	0.106698334
152	0x3d1bf10f	0.03807169
153	0xbdc7d9f5	-0.09758369
154	0xbd1ff1bb	-0.03904889
155	0xbdc32022	-0.09527613
156	0xbd5d9a35	-0.05410214
157	0xbd76b5f4	-0.060232118
158	0xbdb9820c	-0.090580076
159	0xbc92503c	-0.017860524
160	0xbb8bc89e	-0.004265859
161	0xbcc2f60f	-0.02379897
162	0xbb1656da	-0.002293995
163	0x3c57c0fa	0.013168568
164	0x3ce1542c	0.027505957
165	0x3d3b24b1	0.04568929
166	0xbcf9e977	-0.030506833
167	0xbc080d15	-0.0083039
168	0xbcb4c040	-0.022064328
169	0xbb76fa8a	-0.0037685954
170	0xbc9476b3	-0.018123006
171	0x3a0ce6de	0.0005374978
172	0xbd320010	-0.04345709
173	0xbcb352da	-0.021890093
174	0xbd0e22a3	-0.034701
175	0x3d216520	0.03940308
176	0x3dc464f6	0.09589569
177	0x3db7088b	0.08937176
178	0x3d9decb0	0.0771116
179	0x3caac184	0.020844229
180	0xbd2be473	-0.041965913
181	0xbe59e0ac	-0.21277112
182	0xbe9c289d	-0.30499735
183	0xbe98bc4d	-0.29831162
184	0xbe8c3383	-0.2738305
185	0xbdff0890	-0.12452805
186	0xbe12fb86	-0.14353761
187	0xbe032c70	-0.1280992
188	0xbe01d700	-0.12679672
189	0xbdbbdd25	-0.09173039
190	0xbd030f26	-0.03199687
191	0x3d280b34	0.04102631
192	0x3d88b1d7	0.06674545
193	0x3c13fadd	0.009031978
194	0x3c3ece3e	0.011645852
195	0x3c2dc728	0.010606565
196	0x3ce7da2d	0.028302277
197	0xbc8a5c01	-0.016889574
198	0xbadfb228	-0.0017066645
199	0xbc0ef43d	-0.008725223
200	0xbce7c8ea	-0.028294045
201	0xbd3c3eb0	-0.04595822
202	0x3be7f863	0.0070791706
203	0x3d9964bc	0.07489917
204	0x3e5040e7	0.20337258
205	0x3de7b7e4	0.11314371
206	0x3e1535d3	0.14571314
207	0xbd4511ac	-0.048112556
208	0xbe7e8e4a	-0.24858966
209	0xbebafcae	-0.36520904
210	0xbeac78d5	-0.33685938
211	0xbe9349f4	-0.2876736
212	0xbe4f971a	-0.20272484
213	0xbe07b89e	-0.1325402
214	0xbda0ae62	-0.07845761
215	0xbe14fa1e	-0.14548537
216	0xbe183ab1	-0.14866139
217	0xbdd3bbbc	-0.10338542
218	0xbc0571d3	-0.008144814
219	0x3bcf68fc	0.006329654
220	0x3d878296	0.06616704
221	0x3d3fd5ed	0.046834875
222	0x3d1e1952	0.038598366
223	0x3b297f57	0.0025863254
224	0x3cb64d5f	0.02225369
225	0x3c51e6e0	0.012811393
226	0xbceb33b2	-0.028711174
227	0xbc68e841	-0.01421553
228	0xbd68207e	-0.056671612
229	0xbd2a0cc9	-0.0415161
230	0x3ce14d05	0.027502546
231	0x3d9160ec	0.070985645
232	0x3dadbf37	0.08483737
233	0x3e338aa3	0.17533354
234	0x3e399985	0.1812497
235	0xbd0f56c2	-0.034994848
236	0xbe70139d	-0.23444982
237	0xbecc8424	-0.39944565
238	0xbea12435	-0.31472936
239	0xbe36e6ec	-0.17861527
240	0xbdfab1be	-0.12240933
241	0xbde36bb2	-0.111045256
242	0xbdec2e26	-0.115322396
243	0xbdd7ae6d	-0.10531316
244	0xbda4cdb7	-0.080470495
245	0xbdc54a69	-0.09633333
246	0xbd1aa0f4	-0.037751153
247	0x3cdf616b	0.027268132
248	0x3d24626a	0.040132917
249	0x3cffe6fe	0.031238075
250	0x3c2e15c4	0.0106253065
251	0x3c91949d	0.01777106
252	0x3b2b7b7a	0.0026166127
253	0x3c85bd57	0.016325636
254	0xbc92f035	-0.017936805
255	0xbd4554ad	-0.048176456

fc1.bias f4 [128]
0	0x3ce342f2	0.027741883
1	0x3bb9c8cb	0.0056696883
2	0xbd3a3d3e	-0.04546856
3	0x3b4f48d4	0.0031629102
4	0x3c895261	0.016762914
5	0xbce3b96d	-0.027798379
6	0x3d039a17	0.032129373
7	0x3cebaa52	0.028767738
8	0xbc96300f	-0.018333463
9	0xbd19a705	-0.037512798
10	0x3bf74d24	0.0075470377
11	0xbca4ca68	-0.020116046
12	0x3b93ef90	0.004514642
13	0x3d0edaa9	0.0348765
14	0x3cca738b	0.024713298
15	0x3cbb498a	0.022862215
16	0xbcab65d8	-0.020922586
17	0xba69de19	-0.000892134
18	0xbcc3c0ad	-0.023895586
19	0x3b37b5d0	0.0028031953
20	0x3d3e3ab2	0.046442695
21	0xbd2d36aa	-0.04228846
22	0xbafa8121	-0.001911197
23	0xbcecd29a	-0.028909016
24	0x3cadb061	0.021202268
25	0xbd0f2db2	-0.034955688
26	0xbc1d96c1	-0.009618462
27	0xbc3185f1	-0.010835157
28	0x3c005074	0.0078316815
29	0xbbf9e9c2	-0.007626743
30	0xbb8afc88	-0.00424153
31	0xbc9230dd	-0.017845565
32	0xbc8b0f32	-0.01697502
33	0x3b91da7a	0.0044510933
34	0x3cbbc7ef	0.022922484
35	0x3cbd345b	0.023096254
36	0x3c8e40eb	0.01736494
37	0x3d0bf449	0.034168515
38	0x3c82c511	0.01596311
39	0xbd0bc361	-0.034121875
40	0xbd3d0586	-0.046147846
41	0x3cef7ee3	0.029235309
42	0x3c5d2433	0.0134974
43	0xbd378142	-0.044801004
44	0xbcc0bd03	-0.023527628
45	0xbc8925d1	-0.016741665
46	0xba08132a	-0.0005190844
47	0xbc209df8	-0.009803288
48	0x3b34ef70	0.0027608536
49	0xbca4be03	-0.020110136
50	0xbcce3c50	-0.025175244
51	0x3c23ea80	0.01000464
52	0xbd213652	-0.039358445
53	0xbcdbc6f2	-0.026828263
54	0xbceb2fb1	-0.028709264
55	0x3b07f2c9	0.0020744076
56	0xbc2826cc	-0.010263156
57	0xbc57b192	-0.013164895
58	0xbab942e3	-0.0014134314
59	0x3c29e908	0.0103705
60	0xbd1e3478	-0.038624257
61	0xbbd7392f	-0.006568096
62	0xbd041714	-0.03224857
63	0x3cb10ef8	0.021613583
64	0xbd00850a	-0.031376876
65	0xbcc723a6	-0.02430899
66	0x3cfc180c	0.030773185
67	0xb7d96ff1	-2.5920543e-05
68	0x3c62cc1e	0.013842611
69	0xbd172120	-0.036896825
70	0xbd1e6dd0	-0.038678944
71	0xbc985f1c	-0.01860004
72	0xbc4a8335	-0.012360384
73	0xbbdd4296	-0.0067523224
74	0xb91ab7d9	-0.00014755073
75	0x3c0a588f	0.008443966
76	0x3bb28843	0.0054483726
77	0x3a02f0a9	0.00049949676
78	0x3c6f4df2	0.014605986
79	0xbcb43ffc	-0.022003166
80	0xbd0700c1	-0.032959703
81	0x3c81d8c5	0.015850434
82	0x3c17913f	0.009250938
83	0x3c0a42ad	0.008438748
84	0xbd216ad2	-0.039408512
85	0xbc374c21	-0.011187584
86	0x3c8ea5f3	0.017413115
87	0xbd3d8b61	-0.0462755
88	0xbb6b0f3d	-0.0035867237
89	0xbcc1286f	-0.02357885
90	0xbcb93254	-0.022607006
91	0x3cf1a653	0.029498255
92	0x3c4c9cb4	0.012488533
93	0x3d208596	0.039189897
94	0xbd72ade0	-0.05924785
95	0x3cbb0e80	0.022834063
96	0x3c0f9097	0.0087625
97	0x3cae327c	0.021264307
98	0xbcbe43a7	-0.023225619
99	0xbd343c05	-0.04400255
100	0x3ca5a1a3	0.020218676
101	0x3cb8a933	0.022541618
102	0xbcf2a6f8	-0.029620633
103	0xbd2bda4e	-0.04195624
104	0x3af868ec	0.0018952168
105	0xbc8b73eb	-0.017023047
106	0xbd047525	-0.03233828
107	0xbcc703ec	-0.024293862
108	0x3c691766	0.01422677
109	0x3cf6b198	0.03011398
110	0xbc9ac6f6	-0.0188937
111	0xbce02907	-0.027363313
112	0xbce86e61	-0.028372945
113	0x3b8caf70	0.0042933747
114	0xbca8fa6a	-0.02062722
115	0xbcf7d9bf	-0.030255197
116	0xbd5263de	-0.051364772
117	0x3c3582f8	0.011078589
118	0x3c99751a	0.018732596
119	0xbcbd7e95	-0.023131648
120	0xbcd1a7a7	-0.025592638
121	0xbbd4c25b	-0.0064928955
122	0xbcf4d1a0	-0.029885113
123	0xbbdca446	-0.00673345
124	0xbca9f851	-0.02074829
125	0x3c9cecd5	0.019155899
126	0xbc25d06f	-0.010120495
127	0xbcc0d8b1	-0.023540827

fc2.weight f4 [10, 128]
0	0x3bf64f1d	0.0075167553
1	0x3e642fea	0.22283903
2	0x3e12e7aa	0.14346185
3	0x3da563df	0.080756895
4	0xbdac4517	-0.08411615
5	0x3dd7fc74	0.105461985
6	0xbe72690c	-0.23672885
7	0x3da8fabd	0.082509495
8	0x3d533b48	0.051570207
9	0x3c860297	0.016358657
10	0x3dd7687d	0.105179764
11	0xbe9e5547	-0.30924436
12	0xbda27da1	-0.07934118
13	0xbeb9e943	-0.36310777
14	0x3d3e8f7d	0.04652356
15	0x3d68ba75	0.056818444
16	0xbc7a7837	-0.0152874505
17	0xbb753151	-0.0037413428
18	0x3dc72d24	0.09725407
19	0xbd9f892a	-0.07789834
20	0xbdeb76bd	-0.11497257
21	0x3d3d6e32	0.04624767
22	0xbda5ac0e	-0.080894575
23	0xbda76a01	-0.081745155
24	0x3d54dc08	0.05196765
25	0x3de402e4	0.11133364
26	0xbc0a0427	-0.008423842
27	0xbd0b8992	-0.034066744
28	0xbe70f16a	-0.23529592
29	0xbd8fee1d	-0.070278384
30	0x3d71a07a	0.058990933
31	0xbda90435	-0.082527556
32	0x3d976674	0.07392588
33	0x3e25df69	0.16198505
34	0x3d14019f	0.03613436
35	0xbe45fa78	-0.19333827
36	0xbd43e342	-0.04782415
37	0x3b311119	0.0027018248
38	0x3dca269c	0.098706454
39	0xbdaa4e3d	-0.08315704
40	0x3d050ed1	0.032484833
41	0xbc0de166	-0.008659696
42	0xbcb792bd	-0.022408837
43	0xbda8cb2f	-0.08241879
44	0xbd6b8b1e	-0.05750572
45	0x3df0213c	0.11725089
46	0x3d913c4c	0.07091579
47	0x3c8e2982	0.017353777
48	0x3cbfed1c	0.023428492
49	0x3ddc2188	0.10748583
50	0xbd1027fe	-0.03519439
51	0xbed4905c	-0.41516387
52	0x3c0b9cba	0.008521253
53	0x3c8f0530	0.017458528
54	0x3b66257d	0.003511756
55	0x3ca4a17a	0.02009653
56	0x3da03628	0.078228295
57	0x3d85636f	0.06513106
58	0xbb73e220	-0.0037213638
59	0xbce1ee56	-0.027579468
60	0x3d0f70ba	0.035019614
61	0x3d38309a	0.044968225
62	0x3df80173	0.121096514
63	0x3db0ef39	0.08639378
64	0x3d99c446	0.07508139
65	0xbd79cd1e	-0.06098663
66	0xbe5c7ac0	-0.215312
67	0x3d786ab8	0.06064865
68	0x3d8251e4	0.06363276
69	0xbc8e8001	-0.017395021
70	0x3d9744cc	0.07386169
71	0xbe6bc98a	-0.230261
72	0x3d50b35c	0.0509523
73	0x3e3bc302	0.18336108
74	0xbd3cf2ce	-0.046129994
75	0x3c192d34	0.009349156
76	0x3d57c901	0.052681927
77	0xbe82fd79	-0.2558401
78	0xbd4d8819	-0.05017862
79	0x3d41e4e8	0.047337443
80	0xbd80141f	-0.06253838
81	0x3e04a9af	0.12955354
82	0x3d89ed16	0.06734674
83	0xba5fa984	-0.00085320347
84	0xbe3c4c3d	-0.18388458
85	0xbe238aa8	-0.15970862
86	0x3d9c9533	0.07645645
87	0x3e4ab1c9	0.19794382
88	0xbdac71f3	-0.084201716
89	0x3d5126b2	0.051062293
90	0xbda0a206	-0.078434035
91	0xbd88f198	-0.06686705
92	0xbcc5e74f	-0.024158148
93	0x3c857671	0.016291829
94	0x3e3d80f8	0.18506229
95	0xbd3637b2	-0.04448671
96	0xbe62d6d3	-0.22152261
97	0x3bdb2303	0.0066875233
98	0xbc849ef2	-0.016189072
99	0x3d518e3b	0.051161032
100	0xbccc3b7c	-0.024930708
101	0xbe43ea84	-0.1913243
102	0xbe8162ea	-0.25270778
103	0x3b5e5bfa	0.0033929334
104	0x3da4965a	0.0803649
105	0xbd5f3400	-0.05449295
106	0xbdcfb58f	-0.101420514
107	0x3e1ee1d2	0.15515831
108	0xbe86ee1f	-0.26353547
109	0xbba7bfcb	-0.005119299
110	0x3dc1104d	0.09426937
111	0x3e1c0b2e	0.1523864
112	0xbd7ff25b	-0.062486988
113	0xbd77fefd	-0.06054591
114	0xbe391b88	-0.18076909
115	0xbe5f5437	-0.21809469
116	0xbbf4295a	-0.0074512186
117	0xbe812475	-0.25223127
118	0xbd81abf9	-0.06331629
119	0x3d9e8d48	0.07741791
120	0xbe2542aa	-0.16138712
121	0xbec11914	-0.37714446
122	0x3e189647	0.14901076
123	0x3b6acc93	0.0035827502
124	0xbca1db32	-0.01975784
125	0xbd286b0f	-0.041117724
126	0xbe6612d0	-0.22468114
127	0xbcdca8b1	-0.026935907
128	0xbe0f5924	-0.13998848
129	0x3c1b8033	0.009491014
130	0x3e6c8c68	0.23100436
131	0xbd922f42	-0.0713792
132	0xbdc1c1eb	-0.09460815
133	0x3d18d6b3	0.037314128
134	0xbd86b343	-0.0657716
135	0xbe0a9e12	-0.13536862
136	0xbd89ea86	-0.06734185
137	0x3add32ef	0.0016876141
138	0xbe252d1a	-0.16130486
139	0x3dde1f76	0.108458444
140	0x3d84e2d8	0.064885795
141	0x3de74f48	0.112944186
142	0x3d85d72f	0.06535184
143	0xbccd7c42	-0.025083665
144	0xbd945f1e	-0.07244705
145	0x3e2681e1	0.16260482
146	0xbddc0f63	-0.10745122
147	0xbd722e9b	-0.059126478
148	0x3d35b146	0.044358514
149	0x3c68ad79	0.014201515
150	0x3d997ed7	0.07494896
151	0xbd9e35a6	-0.077250764
152	0xbd81290d	-0.06306658
153	0x3ebedfd7	0.3728015
154	0x3d8def05	0.06930355
155	0x3dc7ea16	0.09761445
156	0xbca9871b	-0.020694306
157	0xbcc6fe8d	-0.024291301
158	0xbe55b60b	-0.20870225
159	0xbc619841	-0.01376921
160	0xbdad1124	-0.08450535
161	0xbde73a56	-0.112904236
162	0xbd4bf569	-0.04979459
163	0xbe4d2c91	-0.20036532
164	0x3d8eb738	0.0696854
165	0xbe16bf96	-0.14721522
166	0xbe78b516	-0.24287829
167	0xbd1ae2ee	-0.037814073
168	0xbc3e49dc	-0.011614289
169	0x3bd186fd	0.0063942657
170	0x3d8c830e	0.06860934
171	0x3de81949	0.11332948
172	0xbc21e47d	-0.009881136
173	0xbe04f1a5	-0.12982805
174	0xbbf12248	-0.007358823
175	0x3d576edd	0.05259596
176	0xbc15a26e	-0.009132965
177	0x3cf13a7e	0.029446837
178	0x3e5816bc	0.21102422
179	0xbe1ea423	-0.154923
180	0xbdbb74f8	-0.091531694
181	0xbd6078ee	-0.054802828
182	0x3b5d4ddc	0.0033768332
183	0x3bb4f477	0.0055223065
184	0x3c9d9af1	0.01923892
185	0xbd13945b	-0.036030155
186	0xbcc40aa5	-0.023930857
187	0xbe4d0b10	-0.20023751
188	0xbd0e2ee4	-0.034712687
189	0x3cc56862	0.024097625
190	0xbe60d8c7	-0.21957694
191	0x3bfcf06e	0.007719091
192	0x3d3877ed	0.045036245
193	0xbcac361b	-0.021021893
194	0x3d9104af	0.070809714
195	0x3d348386	0.044070743
196	0x3d1f1c31	0.038845245
197	0x3bc072c5	0.0058730566
198	0x3d289ebd	0.04116701
199	0x3dfe404d	0.12414608
200	0x3e35ae13	0.17742185
201	0xbdc73715	-0.09727303
202	0x3d77a408	0.060459167
203	0x3d394164	0.045228377
204	0xbcb68234	-0.022278883
205	0x3d6d3256	0.057909332
206	0x3d33bc8e	0.04388099
207	0x3d67f68b	0.056631606
208	0xbda24236	-0.07922785
209	0xbe941d8b	-0.2892879
210	0x3d9c243e	0.076241
211	0x3cbf678c	0.023364805
212	0x3d581325	0.052752633
213	0x3d23f324	0.0400268
214	0xbdca6af7	-0.09883683
215	0xbc12b739	-0.0089548165
216	0xbd90f503	-0.07077982
217	0x3d8f7d2d	0.07006297
218	0xba1ce96d	-0.0005985711
219	0x3d84556d	0.06461606
220	0x3dce276b	0.10066112
221	0xbe11aac1	-0.14225294
222	0xbe379552	-0.17928055
223	0xbe2aa5f6	-0.16664872
224	0xbccebd09	-0.025236623
225	0xbd308cf0	-0.04310316
226	0x3c79bedb	0.015243257
227	0xbcb76f4f	-0.022391943
228	0x3d8bcbf9	0.06826014
229	0xbc9aebfd	-0.018911356
230	0xbb37a500	-0.0028021932
231	0x3de40568	0.11133844
232	0x3c54c197	0.012985609
233	0xbd0e8edf	-0.03480422
234	0xbe3b585e	-0.18295428
235	0x3ecedf04	0.40404522
236	0x3e25d027	0.16192685
237	0xbe821328	-0.2540524
238	0xbeb699d3	-0.35664234
239	0x3c5922e0	0.013252944
240	0xbd0970e3	-0.033554923
241	0x3e0bdd4c	0.13658637
242	0x3be4b4b0	0.0069795474
243	0xbe7dd13b	-0.24786846
244	0x3dd0151b	0.101602755
245	0x3e9c0c11	0.30477956
246	0x3d9d0fd3	0.07669034
247	0x3c709d8b	0.014685999
248	0x3dd1d044	0.10244802
249	0xba93c062	-0.0011272545
250	0xbe2561c5	-0.16150577
251	0x3d162278	0.036653966
252	0xbd84dbe9	-0.06487257
253	0xbd4ab1fb	-0.04948614
254	0xbd60302d	-0.054733444
255	0x3d9142fa	0.07092853

fc2.bias f4 [10]
0	0xbcdd6f8f	-0.027030734
1	0xbd328113	-0.043580126
2	0xbda312a1	-0.079625376
3	0x3d7da9da	0.06192956
4	0xbca6d120	-0.02036339
5	0xbcf538b0	-0.029934257
6	0xbd2dd839	-0.042442534
7	0x3c97ca98	0.018529221
8	0x3cec67fa	0.028858174
9	0x3d3d3505	0.04619314
